cnn.pth (torch, 250839 bytes, 10 tensors)

conv1.weight f4 [6, 3, 5, 5]
000000 24 f9 16 3e 79 42 18 3e 61 10 19 bd d3 38 10 bd
       0.14743477 0.14869107 -0.037369136 -0.03521044
000010 70 65 fb 3c 65 f3 c1 3d ee aa d1 3d 84 f8 c8 3c
       0.030688018 0.09470252 0.102376804 0.024532564
000020 12 6e a2 3d f9 d2 8b bc 6b e0 b7 3d 31 a5 3a 3c
       0.079311505 -0.017068373 0.08978351 0.011391924
000030 19 c4 4d ba 5a 7d 7d 3d b5 3e bf 3d 1f c0 bd 3d
       -0.000784935 0.061887123 0.09338132 0.0926516
000040 25 db 3f be f2 72 d0 bd 22 f4 10 3e 52 e1 41 3e
       -0.18735941 -0.10178174 0.1415563 0.18933609
000050 9c 22 56 3d e4 9a 0d be 57 81 88 3d f1 11 80 bb
       0.0522791 -0.13828617 0.066652946 -0.003908389
000060 ec 19 bd 3d 3c 4a 29 be 23 ec 4c be 39 00 79 bd
       0.0923346 -0.16532224 -0.20011954 -0.060791228
000070 03 bd d7 bd 99 34 f6 bc 09 3e 97 bd a2 54 58 be
       -0.10534098 -0.030054377 -0.07384879 -0.21126035
000080 89 09 6d be ee 36 cb ba 3d 97 7f 3d ba d1 d6 bd
       -0.23148169 -0.0015504041 0.06240009 -0.10489221
000090 7f c6 1d be b4 63 71 be 52 ab 94 bd 2b 4c 47 bd
       -0.15407752 -0.2357319 -0.07259239 -0.048656624
0000a0 4c 10 57 be c9 ab 82 be 50 09 55 be c9 f8 4e bd
       -0.2100231 -0.25521687 -0.20804334 -0.05053023
0000b0 a6 fd c9 3c cf be 67 be 5e 53 67 be 81 62 3d be
       0.024657082 -0.22631381 -0.22590396 -0.18494608
0000c0 b5 2b b0 3d c6 11 d0 3d bc e8 8b 3d 18 ef 57 3d
       0.086020865 0.1015964 0.068315 0.052718252
0000d0 e4 81 60 bd cf e3 9a 3d 88 66 34 3d ae 2a 0a 3e
       -0.054811373 0.07562982 0.044043094 0.13492844
0000e0 6d b9 3e bd d3 75 ab bd 55 3a 8e bd 0e 9b cd 3d
       -0.046563555 -0.083720826 -0.0694472 0.1003934
0000f0 68 c9 1a bd 82 fd 1d bd 93 2e c0 bd 63 4e ed bc
       -0.037789732 -0.038571842 -0.09383883 -0.028968042
000100 77 84 38 3d 6e 14 48 3d 10 cb a5 bd 95 d5 12 be
       0.045048203 0.04884761 -0.08095372 -0.14339288
000110 9f 78 a9 3d 27 91 bc 3d da a5 88 bd d2 e0 01 bc
       0.0827496 0.09207373 -0.06672259 -0.0079271365
000120 e3 e1 c3 3d 2c 8f 51 3d 2d 8b 6b 3e 35 1e ef 3d
       0.09564569 0.05116193 0.2300231 0.116756834
000130 4c b4 ae 3d ab 6b 0b 3e 76 55 a3 bd 7a 12 26 3e
       0.08530483 0.13615291 -0.07975285 0.16217986
000140 84 c2 fc 3d 86 fb 88 3e 26 d1 84 3e 1f 98 2b 3e
       0.123417884 0.26754397 0.25940818 0.16757248
000150 70 4b 8c bc 77 1d 48 3e 26 44 27 3e 5d bf 8d 3e
       -0.017125815 0.1954249 0.1633459 0.2768506
000160 47 18 4b 3d 84 a7 4a 3e f2 93 1c be 12 bc 46 3d
       0.0495837 0.19790465 -0.15290812 0.0485192
000170 f5 fc 0e 3d d3 de 53 bd 4e 8a 2f be b1 c5 fa bd
       0.034909207 -0.051726174 -0.17142603 -0.12244738
000180 5a ba 8e be bb d9 4b be d1 fc aa be 18 a7 04 be
       -0.2787655 -0.19907276 -0.3339601 -0.12954366
000190 e1 f8 76 bd d5 ae 84 bc 10 44 f0 3d 08 21 d0 bd
       -0.060295943 -0.016196648 0.11731732 -0.1016255
0001a0 fe 73 58 3d 16 2a d9 3c 7d 68 45 3d 5d 2f 12 3e
       0.052844994 0.026509326 0.04819535 0.1427588
0001b0 44 1f 00 3e 7a fa 21 bd 6f 77 15 3e 29 c1 15 3e
       0.12511927 -0.039545514 0.14596342 0.14624466
0001c0 f4 43 fa 3d 78 d5 f8 3d a2 bc 01 3e 23 e3 28 be
       0.12219992 0.12150091 0.12669614 -0.16492896
0001d0 ea 45 30 be a6 df 1e be 1d 86 94 bd e9 d8 66 be
       -0.1721417 -0.15515003 -0.072521426 -0.22543682
0001e0 bb 88 46 be 33 cf f8 bd a6 30 50 be cf dd 18 be
       -0.19388096 -0.12148895 -0.20331058 -0.14928363
0001f0 f8 1e 89 be 55 df b4 bd 03 2a 94 3c 2e c9 6b 3d
       -0.2678144 -0.0883166 0.018086439 0.057564907
000200 15 99 b1 3b 59 ad 95 3c 09 72 ed 3c 2b a1 b0 bd
       0.00541986 0.018271135 0.02898504 -0.0862449
000210 90 22 c3 bd 01 79 1c bd 44 13 db ba 51 f2 bd 3c
       -0.09528077 -0.038201336 -0.0016714116 0.023186835
000220 5b df 20 3e 65 e4 d4 3d d3 39 57 bd c2 c4 e2 3d
       0.15710203 0.10395125 -0.05254538 0.11072685
000230 83 93 1b bc 02 a0 a4 3b fa 42 f7 bc 9e df 08 3c
       -0.009495619 0.005023957 -0.030183304 0.008354096
000240 0a f1 77 3d 49 14 7f bd 98 f8 56 bd 54 6f 26 be
       0.060532607 -0.062275205 -0.05248317 -0.16253406
000250 24 bd 19 bd 5c ec 8a bd f0 4c 92 bc ee 5b 8c bd
       -0.037533894 -0.06783363 -0.017858952 -0.06853472
000260 b8 7d ad bb ce 7c 97 bd c3 46 0b bd 44 81 0d be
       -0.005294528 -0.073968515 -0.03400303 -0.13818842
000270 63 b8 45 be 71 1d 43 be 5b 0e 03 bd fe b8 fa bd
       -0.19308619 -0.190542 -0.031996112 -0.12242316
000280 3b 8e 5c be 95 d1 5a be 26 32 bd bd 8b 75 63 be
       -0.21538632 -0.21369012 -0.09238081 -0.22212808
000290 fa 49 1b be 18 be 94 3c 8e 5e 42 bd f6 3d 42 bd
       -0.15164939 0.01815705 -0.047453456 -0.04742237
0002a0 32 c6 95 bd da 40 2d be 83 c3 2e be c7 92 99 ba
       -0.073131934 -0.1691927 -0.1706677 -0.0011716717
0002b0 f2 86 7a bd 7d ac 26 3d 63 2b fe bd 94 7f 0e bd
       -0.06116385 0.04069184 -0.12410619 -0.034789637
0002c0 d7 54 c8 3d ed 8e d9 3d 38 ae 11 3c f4 58 cb bd
       0.09781807 0.10622964 0.008891635 -0.09929076
0002d0 38 6a c5 bd b1 4b ae 3a 02 d3 fd bc 2d dd c3 bd
       -0.096394 0.0013297704 -0.030984405 -0.0956367
0002e0 99 5b f0 bc 10 cb c7 3d dd 77 fb 3c 9f 7f af bc
       -0.029340552 0.09755528 0.030696804 -0.02142316
0002f0 1c 62 a5 3d 07 14 6b bd b8 30 07 3d 8e 18 1f 3d
       0.080753535 -0.057392146 0.033005446 0.038841777
000300 08 da af 3d 19 13 15 3c 86 0d ea bc f5 7f 9d bc
       0.08586508 0.0090987915 -0.028570902 -0.019226054
000310 46 c2 94 bc 64 25 b2 bd 85 d6 08 be 83 25 09 bc
       -0.018159043 -0.08698538 -0.13363083 -0.00837076
000320 64 d4 69 3e 56 1c 41 3e 5a 9e 49 3e e2 ae 65 3d
       0.22834927 0.18858466 0.19689313 0.056074984
000330 a5 8d 15 3e b7 ed ab 3d c4 56 19 3e 43 81 ac 3d
       0.14604814 0.0839495 0.14974505 0.08423092
000340 57 04 4b 3e df db d1 3d 25 d4 53 3e 63 64 d4 3d
       0.19825874 0.10247015 0.20686395 0.1037071
000350 63 f3 42 3e 44 90 4b 3d 95 c5 35 3e 47 01 bf 3d
       0.19038157 0.04969813 0.17751153 0.093264155
000360 22 c2 33 3e f1 86 4e 3d b0 e6 11 3e 62 a3 a8 3d
       0.17554525 0.05042166 0.14248157 0.08234288
000370 a9 d2 ab 3d a3 d3 12 3e 18 e9 3a 3e 98 67 8d 3d
       0.083897896 0.14338546 0.1825298 0.069045246
000380 0f 9b 0d 3d 96 fe dc bd 56 1a ad 3c dc 92 96 3d
       0.034571704 -0.10790746 0.021130722 0.0735223
000390 9f bb 31 bd 63 70 e6 bc f7 8b da bd c5 3d 8c bd
       -0.04339182 -0.028129762 -0.106712274 -0.06847719
0003a0 26 81 b4 bd d8 3c ea bd c5 f9 84 3b 90 47 26 3d
       -0.088136956 -0.11437386 0.004058095 0.04059559
0003b0 ac 63 65 3b c0 1c 14 bd 39 de 23 be 90 ec e2 3c
       0.0035002036 -0.03616023 -0.1600274 0.027700692
0003c0 34 cd da bd 4b fc 29 be 43 69 e6 bd 43 66 55 be
       -0.10683671 -0.16600148 -0.11250546 -0.20839791
0003d0 63 4d a2 bd 6d f3 89 bd d6 aa 3d bd e9 a7 5b be
       -0.079249166 -0.06735883 -0.0463055 -0.21450771
0003e0 83 66 43 bd c1 92 47 be f4 47 ba bd 92 29 6f bd
       -0.047705185 -0.19489576 -0.09095755 -0.058389254
0003f0 c1 fe 7f bd dd 9b 0c bd 4d ca d1 3d 65 4f 8b bd
       -0.06249881 -0.03432833 0.10243664 -0.06802253

conv1.bias f4 [6]
000000 6e ae 38 bd fb 54 66 be d3 0b 0e 3f 31 f6 0d bc
       -0.045088224 -0.22493355 0.5548679 -0.008664654
000010 8c 92 89 3d 72 16 80 3e
       0.06717405 0.25017124

conv2.weight f4 [16, 6, 5, 5]
000000 14 9f 0c bd 86 24 b5 3b b0 82 af bd c2 9c 11 3d
       -0.034331396 0.0055280356 -0.085698485 0.035549887
000010 cc 69 26 bd ab 88 52 bd 93 4a 09 3d 61 ff e9 bc
       -0.04062824 -0.051399868 0.033518385 -0.028564157
000020 35 e2 35 bd a6 91 a4 bd 2d ff 1b bd c4 7a 79 3d
       -0.04440518 -0.08035593 -0.03808515 0.060908094
000030 21 7a 52 bc 80 65 96 3d fa e2 2f bd d5 cf 99 3c
       -0.012846501 0.07343578 -0.04294107 0.01877586
000040 ba 4d 96 3c bf a9 70 bd 1f 31 36 3d c8 4f 45 bd
       0.01834761 -0.058755632 0.04448044 -0.04817179
000050 57 4a ae bc a8 a2 7b bd c7 98 3b bd 72 52 73 3d
       -0.021275682 -0.061434418 -0.045799997 0.059404798
000060 1b 4a f4 bc 48 1a 27 3d ca 3d a4 bd 97 9e f7 bc
       -0.029820492 0.040796548 -0.08019598 -0.030226989
000070 88 e6 a2 3c 3f 73 fa bc 39 bf b5 3d bb 1d f3 3d
       0.019885316 -0.030572532 0.088743635 0.11870905
000080 32 5c c7 3d 7d ae a8 3d ce 4a a0 3d d0 3e 65 3d
       0.09734382 0.08236406 0.07826768 0.055968106
000090 2b 7e 9d bb 14 c4 d9 3c ad 98 2b 3d 37 ed b0 3d
       -0.0048063 0.026582755 0.04189365 0.08638995
0000a0 66 b1 ef 3d 85 0f 00 3d 09 a5 a6 3d 8a 1c 0e bb
       0.11703758 0.0312648 0.08136947 -0.002168449
0000b0 de 47 ae 3d 6a 7e b5 3c be ee 11 bd 0d aa 48 bc
       0.08509801 0.022155005 -0.035628073 -0.0122475745
0000c0 55 d0 ad 3d 5b 8e 08 bd d1 72 f5 bc b1 ce 2b bd
       0.08487002 -0.033338886 -0.029961975 -0.041945163
0000d0 f1 fb 55 3d 51 19 3d 3d 93 03 64 bc ea 44 96 3c
       0.052242223 0.04616672 -0.013916868 0.018343408
0000e0 90 81 5d 3d 66 c7 a7 3d 12 90 01 3d 93 11 ae 3d
       0.05407864 0.08192329 0.031631537 0.08499446
0000f0 04 71 8a 3d 1a 81 41 3d 61 5a da 3d 6f 16 0d 3d
       0.06759837 0.04724226 0.1066177 0.034445222
000100 bc 6b 59 3d c3 75 02 bd ab 75 a2 3d c7 5a 76 bc
       0.05308126 -0.031850588 0.079326 -0.015036291
000110 4a fa 79 bd 0e c9 73 3d 78 45 b7 3c 3f 77 f9 bc
       -0.06102971 0.059517913 0.022371992 -0.030452369
000120 df 25 30 bd 6e 75 ad bd 1c 12 ef bc 9f 33 9c bd
       -0.043004867 -0.084696636 -0.02918344 -0.076270334
000130 74 6f 52 bc 28 56 b6 bc 8b f3 26 3d 1b 82 82 bd
       -0.012843955 -0.02225788 0.040759604 -0.06372472
000140 74 99 93 3d 0e 19 38 bd 3e eb de 3c 9b 5e de bb
       0.07207003 -0.04494577 0.027211782 -0.00678618
000150 dd 79 cd 3c e4 74 83 bd 58 ef 2f 3c 20 18 ae 3c
       0.025082523 -0.064187795 0.010738216 0.021251738
000160 04 29 63 bd e8 f9 45 3d 31 e5 d4 3d ce 02 64 3d
       -0.055459037 0.048334032 0.10395277 0.055666737
000170 0e 75 4a 3d 76 a7 09 b9 40 b7 ef bb a4 0b 9d 3d
       0.04942804 -0.00013127722 -0.0073155463 0.07668236
000180 f9 57 e5 3c 5c e1 f7 bc ee 60 99 3d f8 50 81 bc
       0.02799605 -0.030258827 0.07489191 -0.01578568
000190 63 bf 42 3d 36 71 b3 bc ed 0a 21 3d 89 a6 ab bc
       0.0475458 -0.02190457 0.03931706 -0.020953434
0001a0 da 9c 68 bd e4 5e 24 3d b3 ff 1a bd b3 e8 77 3d
       -0.05679021 0.040129557 -0.03784151 0.060524654
0001b0 8c 38 88 bd e6 dc 5d ba 79 e7 80 bd f0 ea 8d ba
       -0.066514105 -0.00084633974 -0.0629415 -0.0010827463
0001c0 2c 87 5d 3d c4 2e 5e 3c eb 58 8f 3d b2 3d 85 bd
       0.054083988 0.0135609545 0.06999382 -0.06505908
0001d0 ef ce b4 bd 0c 00 79 bd 22 24 88 3c 3d 52 54 3c
       -0.08828532 -0.06079106 0.016618792 0.01295906
0001e0 48 fa 3e bd f7 22 c3 3c e7 52 9d bc d0 16 cc 3b
       -0.046625406 0.023820383 -0.01920457 0.0062283054
0001f0 60 bc a1 bd ca 61 69 bd 53 5f 9a 3d 69 4c 17 bb
       -0.07897258 -0.056978025 0.07537713 -0.0023086315
000200 3c 2e 2a bd 69 45 c5 bc d8 c4 20 ba 52 9e 08 bc
       -0.041548 -0.024080949 -0.00061328476 -0.008338528
000210 f5 b8 b9 bc ce 46 1d bd 55 57 35 bd 2e 06 db 3c
       -0.022671202 -0.038397603 -0.04427274 0.026736345
000220 f4 fc 88 bd 72 83 ff 3c f3 a8 40 3d 50 24 85 bd
       -0.06688872 0.031190608 0.047036123 -0.06501067
000230 dc 33 9e bd 05 32 ae bd e4 e4 46 3c 41 18 94 3d
       -0.07724735 -0.08505634 0.012139533 0.072311886
000240 8e a1 81 3d 26 7b f0 bc 65 ee fb 3c a6 63 cc bc
       0.06329642 -0.029355597 0.030753324 -0.02494986
000250 03 13 d2 3c 46 0b cc 3c 9f 3b 7f bc a9 07 b3 3d
       0.025643831 0.02490772 -0.01557818 0.087416954
000260 8a 58 12 3a e1 f5 08 3d db d1 92 bd bf 8c d4 bc
       0.00055826514 0.033437613 -0.07168933 -0.02594602
000270 23 cb a3 3c 23 a0 8d bd ef f2 13 3d 54 b7 88 bc
       0.019994324 -0.06915309 0.03612035 -0.01668898
000280 76 75 a0 3d e6 a1 a3 3c a2 ec 1b 3b 97 a7 4f bd
       0.07834904 0.01997466 0.0023792167 -0.050696936
000290 3b bf a3 bd 8e f5 84 bc 05 8a 05 bc dc 82 39 bd
       -0.07995459 -0.01623037 -0.008150582 -0.045290813
0002a0 c2 ad 87 3d fc ac 46 3a b0 76 61 bd a5 af 58 3d
       0.066249385 0.0007578877 -0.05504483 0.052901883
0002b0 98 e7 b2 3d 04 e8 f6 bc f1 da 20 bd ca a5 98 bc
       0.08735579 -0.03013993 -0.0392713 -0.018633742
0002c0 be 51 8f bd 58 d7 f0 3b df a7 85 3d aa 98 90 bd
       -0.06998013 0.0073498897 0.065261595 -0.07060368
0002d0 37 b4 12 3d 2b 11 2c 3d a7 a7 05 3d fd 3b 92 bd
       0.035816398 0.04200856 0.03263059 -0.07140348
0002e0 42 75 71 bd 9b 5f 88 3d 57 24 83 3d b5 b6 5d 3c
       -0.058949716 0.0665886 0.06403416 0.01353233
0002f0 23 d5 eb 3c c9 1c 94 3d 0e 29 9d bd f7 20 0e 3d
       0.028788155 0.07232053 -0.07673846 0.034699406
000300 b8 b8 73 bd 3b cf e4 3c 68 ed fd bb 5d 88 63 3d
       -0.059502333 0.027930846 -0.0077492483 0.055549968
000310 5b af 74 3d e8 74 3a bd 53 99 65 bd 40 90 73 bd
       0.059737545 -0.045521647 -0.056054424 -0.05946374
000320 d7 00 24 3d 17 ec 05 bd 16 f3 26 bb e7 2d c4 bc
       0.040039863 -0.032695856 -0.002547448 -0.02394767
000330 3b 18 3e 3d e7 5d 93 bb 3e 39 40 bc 60 de ac bd
       0.046409827 -0.004497278 -0.011732398 -0.08440852
000340 51 99 4a bd db f0 e5 3b 1c 8e b9 3c f5 86 1d bd
       -0.04946262 0.0070172376 0.02265077 -0.038458783
000350 bb ef 2c bc 71 50 69 bc e4 01 85 bd 27 20 82 3d
       -0.010555203 -0.01424037 -0.06494501 0.06353789
000360 c2 8d 3d 3d c0 5f f9 3c 69 8d 3b bb b8 83 a3 bc
       0.04627777 0.030441165 -0.0028618223 -0.01996027
000370 cd a2 70 3c 0d 05 a9 3c 88 66 50 bc 1d 50 cf bc
       0.014687252 0.020632291 -0.012719758 -0.025306756
000380 e5 3f 05 3d 75 aa 9e 3d 7e 32 25 3d b9 8e 3c bd
       0.032531638 0.07747356 0.040331356 -0.04603455
000390 93 3e 74 bd 75 da df 3c db 12 17 bd 01 37 5a 3d
       -0.059629988 0.027325848 -0.036883216 0.053275112
0003a0 b1 33 9c 3c 73 a0 08 ba a6 d3 8b 3d 93 4e 33 bd
       0.019067617 -0.0005211897 0.06827478 -0.043776106
0003b0 fc ab 5a 3a 67 04 3c 3c df 5d 77 bd cd a0 d6 3c
       0.00083416677 0.011475659 -0.060392257 0.026199723
0003c0 3c 6e c8 3c 07 b8 6c 3b ca 0b 39 3d aa cf 80 3c
       0.024466626 0.003612043 0.04517726 0.015724022
0003d0 62 bf ab 3c 49 0e 87 bc d8 30 59 3d c9 e8 85 bc
       0.020965282 -0.016486304 0.053025097 -0.016346352
0003e0 72 7c 77 bd 52 e8 49 bd eb ec 2b bd 72 1e 28 3d
       -0.060421415 -0.049293824 -0.04197399 0.04104466
0003f0 37 63 62 3c 05 11 23 3d 8c 9e 9d 3d 28 f8 ac bd
       0.0138176 0.039811153 0.07696256 -0.084457695

conv2.bias f4 [16]
000000 16 20 45 3d 43 85 b5 bd 82 ec cf bd fe 66 be bd
       0.048126303 -0.08863308 -0.10152532 -0.09296988
000010 e0 45 65 3e bf a7 6a bd 0b d5 40 3d ea 88 18 3e
       0.22389936 -0.05728888 0.047078174 0.14895979
000020 66 73 8f bd 58 8f c7 3b 02 50 cd bd a7 06 06 3e
       -0.070044324 0.006090086 -0.10025026 0.13088475
000030 65 88 e5 bc 41 da fd bd 42 61 69 3d d9 e9 d0 bd
       -0.02801914 -0.12395144 0.056977518 -0.10200853

fc1.weight f4 [120, 400]
000000 c2 7c 95 ba ec 54 35 bd 78 c5 c9 3c d3 c5 50 bd
       -0.0011404979 -0.04427044 0.024630293 -0.05096991
000010 9f 39 8b 3c 4e 37 eb b9 f5 06 ce 3c 73 70 19 3d
       0.01699525 -0.00044863898 0.025149802 0.037460756
000020 24 4f 1e 3d 19 7a 7f 3b 7b 73 44 bd f2 07 0c 3d
       0.038649693 0.0038982688 -0.047961693 0.034187265
000030 5d f7 13 3c c9 2d 38 bd 29 91 0e 3d 67 75 db bc
       0.009031144 -0.04496554 0.034806404 -0.02678938
000040 b2 52 0e 3c 90 42 a8 3c 18 e9 59 bb f4 5e 04 3d
       0.008686708 0.020539552 -0.0033250507 0.032317117
000050 0e 78 2c bd dc 04 8c bc 58 3e 16 bd c1 9f 17 bc
       -0.04210668 -0.01709216 -0.03668055 -0.009254397
000060 a3 8e b3 3c ba 1c a1 3c f7 85 5c bc f5 6b 32 3d
       0.0219186 0.019667018 -0.013459674 0.043559987
000070 21 9f 47 bb e3 b1 af bc fc 3e 20 bd d5 f9 eb bc
       -0.0030459838 -0.021447128 -0.039122567 -0.028805653
000080 36 04 a2 bc 9f 4f e9 3c 4b 06 19 3d 46 f4 3e bd
       -0.019777399 0.02848035 0.037359517 -0.046619676
000090 d9 5e 79 3c 94 6f 0f bc 72 aa d4 bc 02 b4 03 3c
       0.015220367 -0.00875463 -0.02596018 0.008038523
0000a0 81 69 f8 3c 3e 9c 0b bd 42 ba 95 bc c4 2d 19 3d
       0.030323746 -0.03408455 -0.018277291 0.03739716
0000b0 7f b1 b9 bc 95 74 26 3d 21 7c a0 bc 4e 11 02 3d
       -0.022667645 0.040638525 -0.01959044 0.031754784
0000c0 59 fb 41 bd 7b 0a 07 3c e3 f5 2a bc 10 4c da bb
       -0.047358844 0.008242245 -0.0104346005 -0.0066618994
0000d0 ad c0 c1 bc 9c 8f ba bc b6 b6 ef 3c 86 0c 82 bc
       -0.023651445 -0.022773556 0.029261928 -0.015875112
0000e0 38 d3 3a bc 18 a3 1e 3c 1b 26 64 3d 0e 5e de bc
       -0.011402898 0.009682439 0.055700403 -0.027144458
0000f0 d4 24 96 3c fa 71 0f 3d d2 e9 18 bd 42 2e 20 bc
       0.018328108 0.035020806 -0.037332363 -0.009776654
000100 ef 9b 01 3d 4a 25 36 3d b3 af f6 bc 21 56 bd 3c
       0.03164285 0.044469155 -0.030113077 0.023112359
000110 bd d2 50 3d f6 e8 27 3a 86 88 d3 3c 63 e3 d2 bc
       0.050982226 0.00064052583 0.025821935 -0.025743192
000120 0a 41 92 bc 55 89 88 3c ed 2e 9d 3c e3 8d e8 3c
       -0.017853279 0.016667048 0.019187415 0.02838797
000130 16 d4 40 bd ef 2e 13 bd 51 e6 06 3d 65 85 e5 3c
       -0.04707726 -0.03593343 0.03293449 0.028017709
000140 b3 27 87 3b 47 82 8d 3c 5c fa 39 ba e3 85 d0 bc
       0.0041246056 0.017274035 -0.00070944964 -0.025454467
000150 77 58 02 bd 5a cf 13 bd 7f 91 e9 3c 70 a3 a9 b8
       -0.031822648 -0.036086418 0.02851176 -8.0889906e-05
000160 12 19 d9 3c 03 d8 13 bd 46 b1 b2 bc 37 90 ef 3c
       0.026501212 -0.036094677 -0.021813046 0.029243572
000170 54 88 18 3d de f5 d2 3b 52 1a 58 bd 1c 4b cb bc
       0.037239388 0.006438001 -0.052759476 -0.024816088
000180 28 c2 a3 3c cd e2 35 bd a9 22 b5 3c 5a df 81 bd
       0.019990042 -0.044405747 0.022111254 -0.06341429
000190 30 92 0e bd 29 8d bd 3b 43 9e e3 3c b3 99 20 bd
       -0.034807384 0.00578465 0.027785426 -0.03920908
0001a0 c9 91 90 3a e4 f9 93 bb 0f 5a 01 bd 3b 10 6c 3c
       0.0011029775 -0.0045158733 -0.031580027 0.0144081665
0001b0 52 0d 1f 3d 74 19 4a bc 54 69 36 3d d1 49 9c 3c
       0.038831063 -0.01233517 0.044534042 0.019078167
0001c0 cf 5e 80 bc d8 47 ef 3c 56 44 d4 3c 39 46 11 bc
       -0.015670208 0.029209062 0.025911491 -0.00886684
0001d0 1a 90 02 3d af 04 a0 3c f0 56 6c 3c 61 15 ec 3c
       0.031875707 0.019533483 0.014425024 0.028818788
0001e0 80 1e 87 3d c6 e9 da 3c 0a 7f d4 bc f0 17 3e 3c
       0.06597614 0.0267228 -0.025939483 0.011602387
0001f0 1d 06 98 3c ca 96 b0 3c 53 fc da bc d2 56 d1 bb
       0.018557603 0.021556277 -0.026731646 -0.0063885236
000200 0a f8 2c bb 62 08 ec 3c c0 32 a2 bc 1c 33 d5 bc
       -0.002639296 0.028812591 -0.01979959 -0.026025347
000210 c1 1a bc 3c 62 84 b1 3c 09 78 38 3d 34 dc 6c 3b
       0.022961976 0.02166957 0.04503635 0.0036141993
000220 a7 95 d4 bc 5e 8f 06 bd ef 42 13 bd 38 6c 02 3d
       -0.025950266 -0.03285157 -0.035952505 0.031841487
000230 47 69 cb 3c 97 56 55 3d e7 e8 b8 3c 4c 33 43 3d
       0.024830474 0.05208453 0.022571994 0.047656342
000240 b5 40 49 3d 2d 3a a9 bc 85 da 2e 3d 16 2e 8a bb
       0.049133975 -0.020657623 0.042688865 -0.0042169197
000250 3c 6c 40 3b 5d 9f 2d 3d d8 6f 2f 3d 75 ae cb 3c
       0.0029361388 0.04238831 0.042831272 0.024863461
000260 ee 16 0f 3c 0a ca 0a 3b 14 df ee bc d5 17 f8 3c
       0.008733494 0.0021177554 -0.029159106 0.030284801
000270 8b 99 15 bd 06 33 41 bd cd 91 47 3d ac 87 0c bc
       -0.036523383 -0.0471678 0.04872303 -0.008577269
000280 96 f8 81 3d 14 54 ef 3c 69 9a 12 bd 3a ed 18 3d
       0.06346242 0.029214896 -0.03579179 0.037335612
000290 47 12 0c bd b1 50 cb bc d1 ef f2 bc a1 6c b2 bc
       -0.034197118 -0.02481875 -0.029655369 -0.021780314
0002a0 4b c6 74 3c 90 be 2e bd 17 77 d8 bb cc ad 1b bc
       0.014939855 -0.042662203 -0.0066059935 -0.009501886
0002b0 04 6f 11 bd 5f 30 d1 bc ea 38 b0 bb c2 53 56 bd
       -0.035506263 -0.02553576 -0.0053778784 -0.05232597
0002c0 eb a5 19 bc ab 09 c4 3c 61 da 98 3c 18 1a fb 3c
       -0.009377937 0.023930391 0.018658819 0.03065209
0002d0 56 f8 e0 bc 5f 39 56 3d 47 6f 20 3d 4a 6e 1f 3c
       -0.027462166 0.052300807 0.039168622 0.009730885
0002e0 57 ff 1b 3d bc d9 c2 3c 2c 41 41 3d 9b d6 a6 3a
       0.038085308 0.023785464 0.047181293 0.0012728752
0002f0 ab 46 ab 3b 2b 80 09 3d fc 0f ce bb ef da 75 3d
       0.00522693 0.033569496 -0.0062885266 0.060023244
000300 19 0b 00 bd 51 50 f9 3c 3a 3d 1a 3d 59 d9 83 bc
       -0.031260584 0.030433806 0.037656046 -0.01609485
000310 47 5a 93 bc ae 85 7e bc 26 3d e7 bc 77 ff 15 3d
       -0.017987384 -0.015534801 -0.0282274 0.036620583
000320 e2 2f b5 bb 9f 33 ea 3c 28 63 fd bc 5e 63 17 bc
       -0.0055293897 0.028589068 -0.03093107 -0.00924
000330 be fb 88 3d 5b 9a a3 3c e0 34 4a 3c 10 9f 4b bd
       0.06688641 0.019971063 0.012341708 -0.04971224
000340 49 67 17 bd f6 2c f1 3b d5 26 ac 3c a3 00 9b bb
       -0.036963735 0.007360096 0.02101461 -0.0047303005
000350 3b f7 1a bd 49 45 46 bd f6 18 8d bb 1c b1 66 bc
       -0.037833434 -0.04840592 -0.004305954 -0.014080312
000360 40 a8 c2 bc 7e b6 2f 3c df 2d 54 bd c5 3f fb 3c
       -0.023761868 0.010724662 -0.05180156 0.030670056
000370 f9 f7 7c 3d 2f 2a d3 bc a8 47 f8 3c 00 64 29 3d
       0.061759923 -0.02577695 0.030307606 0.041355133
000380 06 39 ba 3b e6 ee a0 bc 4a 8e 83 3b cf bb 37 3d
       0.0056830673 -0.019645166 0.004014765 0.044856843
000390 78 4d b5 bb d9 ea c0 3b 5a 39 2b 3d 36 20 08 bd
       -0.0055329166 0.005887371 0.04180274 -0.033233844
0003a0 79 69 91 39 71 e5 44 3d 59 e4 20 3d e8 87 40 3d
       0.00027735138 0.048070375 0.03928027 0.04700461
0003b0 b1 f5 d9 bc b1 30 91 3c 48 94 bf bc 9f 4c 46 3d
       -0.026606413 0.017723413 -0.023386136 0.048412915
0003c0 0d 61 a9 3c 1b ba 1d bd b2 1a 16 bd c2 c9 18 3d
       0.02067616 -0.038507562 -0.036646552 0.037301786
0003d0 22 bc 09 bd 57 f8 d5 3b db 0d 46 bd ff 4d 58 bc
       -0.033626683 0.0065298486 -0.048353057 -0.0132021895
0003e0 32 8c 98 bc b8 f7 c9 3c 87 cf 42 3d 9d a3 b0 bc
       -0.018621538 0.024654254 0.047561195 -0.021562392
0003f0 c8 5f fa 3c 81 f5 0b 3a 2f 65 da 3c 52 21 4e bc
       0.03056325 0.0005339012 0.026659576 -0.012581186

fc1.bias f4 [120]
000000 8c 9f 62 3c a6 0e 1e bd 3b b7 31 3d 43 28 b2 bb
       0.013831984 -0.03858819 0.043387633 -0.0054369285
000010 e1 5b 3d bc dc 8f a5 bc ec 37 db 3c 08 b7 57 bb
       -0.01155755 -0.020210199 0.026760064 -0.0032915492
000020 ad a4 0d 3d f2 c8 14 bd 91 3c e7 3a 8b 6b 5e 3d
       0.034580875 -0.03632445 0.0017641952 0.05430178
000030 c0 70 25 bd e5 26 ae 3c d9 f6 34 bd 06 37 6d bd
       -0.04039073 0.02125878 -0.044180725 -0.057913803
000040 5b 8c 8e 3b b1 f2 2f 3d 6d 1a 12 bd 8e 4a fd 3c
       0.004350228 0.042956058 -0.035669733 0.03091934
000050 e0 7e c8 bd 75 2b 28 3c 8e 28 33 3d 39 f9 da 3d
       -0.097898245 0.010264267 0.043739848 0.10692067
000060 fe 94 27 bd ed 8e 1d 3c 73 43 94 bc 66 03 20 bd
       -0.040913574 0.009616596 -0.018098569 -0.03906574
000070 c5 f0 8e 3d 17 71 2d 3c 79 36 af bc 15 25 93 3d
       0.06979517 0.010586045 -0.02138828 0.07184807
000080 9a 75 88 3c 36 f2 0d 3d 4f 1a 22 ba 09 db b8 bd
       0.01665764 0.03465482 -0.000618373 -0.09026153
000090 cf 77 44 3d c3 15 75 bd ab 6a 8a 3d e8 32 89 bc
       0.04796582 -0.059835207 0.067586266 -0.016747907
0000a0 e0 17 79 ba 08 ad 78 3c 1e 01 ae 3c 14 5c d1 3d
       -0.0009502154 0.015177973 0.021240767 0.10222641
0000b0 8b 4c 41 3c d8 0b c9 bc a2 f3 26 3c 45 c5 ff bc
       0.011798034 -0.02454178 0.0101899225 -0.031221995
0000c0 af 7e 65 bc f1 c1 c3 3c 75 fd b6 bc e6 60 8a 3d
       -0.0140072545 0.02389619 -0.022337655 0.06756763
0000d0 b2 57 03 bd 74 6b 75 bc bc 2d 7a 3d 07 04 74 bc
       -0.032066055 -0.014979232 0.061078772 -0.014893538
0000e0 f9 73 da bb fd 55 05 3c 1b 9b de 3c c9 94 fe bc
       -0.006666657 0.008138177 0.02717357 -0.031076806
0000f0 1f 3a 31 bd 0c fc 6b bd 88 18 c7 bc e7 94 77 3d
       -0.04326832 -0.057613418 -0.02430369 0.06044474
000100 2a a9 a4 3d af 65 6d 3c b5 88 51 3c 70 28 91 bc
       0.08040078 0.014489575 0.012788941 -0.017719477
000110 15 86 b4 bb 2c 5b 72 bd ca 3b 20 3c 66 ee 2f 3d
       -0.005509148 -0.05916898 0.00977988 0.042951964
000120 53 b0 a2 bc fc 90 10 3d a2 59 a9 bb 45 8f 38 3c
       -0.019859469 0.035294518 -0.0051681558 0.011264627
000130 66 a6 0c 3e 4d e8 6a 3d c3 30 4a 3d 9c 17 eb 3c
       0.13735351 0.057350446 0.04936291 0.028697781
000140 7b fa 21 bd 78 b2 74 bd ff 95 08 3c 42 1a 47 bc
       -0.039545517 -0.059740514 0.008336543 -0.012152256
000150 9a bc 39 bd 40 7f 29 3d b1 76 4f 3d c0 16 b1 bb
       -0.04534588 0.04138112 0.050650302 -0.0054043233
000160 37 4e 66 bb 60 7f 17 bd 1d 39 7f bd a0 40 b3 bb
       -0.0035141835 -0.03698671 -0.062310327 -0.0054703504
000170 2b 6e 61 ba 1f 6e 26 3c 80 0a 00 3d 0c 3d 25 bd
       -0.0008599485 0.010158091 0.031260014 -0.040341422
000180 9a f5 ad 39 75 46 95 bd 6d 0c b3 3b 3b b6 5b 3d
       0.0003318012 -0.07288829 0.0054641278 0.053640585
000190 d1 47 f3 bc ae 39 87 3c f8 41 a5 bb 42 8f 2e bd
       -0.02969733 0.016506996 -0.0050432645 -0.04261709
0001a0 f8 ba 13 bd 19 00 05 3c 3f 82 04 3d 3e e2 88 bb
       -0.03606698 0.008117699 0.032350775 -0.004177361
0001b0 2b 1c 3b 3d 3e d5 eb bc 4a 05 e1 3c 46 26 01 3d
       0.04568116 -0.028788205 0.027468342 0.03153064
0001c0 bb b7 86 3d c3 df cb 3c 70 4f 5e bc 5c 96 86 3c
       0.065780126 0.024886971 -0.013568744 0.016429119
0001d0 d0 05 40 3c 67 ff ae 3b 81 73 19 bc bc f6 7d 3c
       0.011720136 0.005340505 -0.009365917 0.015500721

fc2.weight f4 [84, 120]
000000 41 59 a9 3c eb 3a f7 bc fb f6 3b 3d 4f 97 43 bb
       0.020672442 -0.030179461 0.045889836 -0.0029844826
000010 5a d6 68 bd 7e af 77 3d f8 57 b3 bd 46 19 bb 3c
       -0.056845047 0.060470097 -0.08757013 0.0228392
000020 92 22 75 bd 13 18 a8 bd 3d 69 ec bc 8a 7f 81 3d
       -0.059847422 -0.08207717 -0.028858775 0.06323154
000030 e1 35 5e bc a2 a8 52 bc 01 4f 55 bd 23 b4 94 bd
       -0.01356265 -0.012857588 -0.052077297 -0.07260921
000040 21 22 b9 3d 34 c8 af 3b 44 eb 62 3d 46 bc 95 bd
       0.09039713 0.0053644422 0.055400148 -0.07311301
000050 0b 3d 35 3d e9 8d 4d 3d 0a 67 5f bd 48 b7 c1 3b
       0.04424767 0.050184164 -0.054541625 0.0059117414
000060 79 ae 5e bd a1 a8 32 3c fd f4 49 bd ad bb 84 bc
       -0.05436561 0.010904462 -0.049305905 -0.016202772
000070 4f 83 e6 bc 67 ae ab 3d ee e8 ba 3d 04 ca 59 bd
       -0.028138785 0.08382874 0.09126459 -0.053171173
000080 48 be 03 bd df 95 e1 3c dc 56 32 3b 7d db a1 bd
       -0.03216389 0.027537284 0.0027212417 -0.07903192
000090 1e 7c 3c bc c4 af 93 bd 26 8f 9f bd 2c ce e4 3c
       -0.011504201 -0.07211259 -0.07790975 0.027930342
0000a0 06 7b 49 bd d2 76 28 bd 11 db ad 3d 1f 5a 15 3d
       -0.04918959 -0.04112894 0.08489049 0.0364629
0000b0 6d 34 29 bd d2 e0 00 bd 56 7f 8d 3d 01 ce dd ba
       -0.041309763 -0.031464405 0.06909053 -0.0016922356
0000c0 f3 9e c0 bc be 1b c0 3d f4 85 49 3d f0 21 3c bd
       -0.023513293 0.093802914 0.049200013 -0.045930803
0000d0 c8 0a a4 3d a2 bd 34 3c e5 08 a8 3a 8b 5b b6 3c
       0.08009869 0.01103154 0.0012820034 0.022260448
0000e0 82 34 a9 bd 2f 7b 1b 3d a7 2f a8 3d 8a 9f 68 bd
       -0.08261968 0.037959274 0.08212214 -0.056792773
0000f0 b1 ba cc 3c 51 0f 41 bc a8 ce 59 3d 00 0b 94 3d
       0.024991365 -0.011783437 0.0531756 0.072286606
000100 1b 4c 3f bc cb db d2 3c f5 99 7c bd 74 79 d4 3c
       -0.01167586 0.025739571 -0.061670262 0.02593682
000110 99 27 a2 bd 53 35 b2 3d 84 f3 b3 bd 64 96 e9 bc
       -0.07917709 0.08701577 -0.08786681 -0.028514095
000120 ac 21 58 3c de 90 a9 3d 46 a9 a7 3d 15 e6 34 3d
       0.013191622 0.08279584 0.08186583 0.044164736
000130 3b ce dc 3c 3d d4 9e 3d 69 29 96 3d ac 2f 99 bc
       0.026953807 0.07755325 0.07332117 -0.01869949
000140 50 b8 c5 bb e3 fd fc 3c 00 3b 9b 3d a9 c4 40 bd
       -0.0060339347 0.030882781 0.07579613 -0.04706255
000150 4c 0c b3 3d c0 ee 76 3d 53 67 74 bd 0c a1 bb 3d
       0.0874258 0.060286283 -0.05966885 0.09161577
000160 3a 3f 77 3d 65 fd c1 3d 3c f5 92 bd ee 75 88 bd
       0.060363032 0.09472159 -0.07175681 -0.06663118
000170 93 4d 92 bd 6e 6e 09 bc bc eb 99 3d 4a 9a aa bd
       -0.07143702 -0.008388145 0.07515666 -0.083302096
000180 f7 3d b2 bd 54 34 f6 bc fb 0c 03 bc 61 c0 63 bd
       -0.08703225 -0.030054249 -0.0079987 -0.05560339
000190 76 b5 14 bb 15 b3 b2 bd 7c 84 46 bd 09 de 41 3d
       -0.0022691167 -0.087255634 -0.04846619 0.04733089
0001a0 6d e2 8c bd 1c ec b1 3d 12 59 d7 bc 8d bf 5a 3c
       -0.06879125 0.086876124 -0.02628759 0.013351333
0001b0 d9 61 ca 3c d6 bd 09 3c 1d 4e b7 bd 6a a5 78 bd
       0.02470486 0.008407077 -0.08950446 -0.060704626
0001c0 05 b2 2d 3c 2a 75 87 bd c7 24 9e 3d a2 46 59 bd
       0.010601525 -0.06614144 0.077218585 -0.053045876
0001d0 93 9c 34 3c 54 d3 a8 bd 14 b1 8f 3c 4a 39 5a 3d
       0.011023658 -0.08243433 0.017540492 0.05327729
0001e0 38 86 b6 3d b5 02 c1 bd cc fa 50 3d a5 35 f8 3b
       0.08912319 -0.094243445 0.05102043 0.0075747543
0001f0 4c 9f 1c 3d 91 e9 b4 3d 80 80 6b 3d 09 09 45 bc
       0.038237855 0.08833612 0.057495594 -0.01202608
000200 ac 8c 26 bc b8 ba 3a 3c e2 36 b2 3d 22 be 47 3d
       -0.010165375 0.011397056 0.08701874 0.04876531
000210 28 a5 78 3d fa 10 88 bd cf 0c 93 bc 62 f5 98 3c
       0.06070438 -0.06643863 -0.017950444 0.018671695
000220 f4 82 ca 3d b1 56 00 3d 0a c2 82 bc 44 2a bd bd
       0.098882586 0.031332675 -0.015961666 -0.09236577
000230 a0 9a 86 bd 94 4b 87 3c 74 98 84 bd 66 46 59 3d
       -0.06572461 0.01651553 -0.064743906 0.053045653
000240 0e ff 17 3d ad 09 96 bc dd eb 91 3d 32 06 c5 bc
       0.037108473 -0.01831516 0.071250655 -0.024050806
000250 00 f7 08 bc 9c c5 44 3d 75 39 b7 3d bf d5 46 3d
       -0.008359671 0.048040017 0.08946506 0.048543688
000260 9a 4a a3 3c f8 13 c8 3c e5 f5 27 3d a1 42 e0 3c
       0.019933034 0.024423584 0.041005988 0.027375521
000270 96 16 46 bd 36 69 a2 3c e0 57 5b bd 75 14 2d 3d
       -0.048361383 0.01982556 -0.0535506 0.042255837
000280 eb 4c 8e 3d 3e 77 a0 3d c9 1a 53 bb e5 41 84 bd
       0.06948265 0.07835244 -0.003221201 -0.06457881
000290 a5 79 31 3b 49 ff 96 3d c7 9c 83 bc bf f1 9c 3c
       0.0027080562 0.073729105 -0.016065968 0.019158242
0002a0 5e 5a bf 3d 84 a0 ad 3d 65 6f 54 bd 44 6a 10 3d
       0.09343408 0.084778816 -0.051864047 0.035257593
0002b0 68 ec 87 3d e5 22 89 bd 35 4f 9c bc 70 ea c1 bb
       0.06636888 -0.06696109 -0.019080738 -0.0059178397
0002c0 47 01 86 3d a0 32 b6 bd 19 67 26 bd 2e 78 8f 3d
       0.065432124 -0.08896375 -0.040625665 0.07005344
0002d0 d1 19 2a 3d 2e 16 c0 3b 6f 48 c5 bc e4 c3 23 bd
       0.041528527 0.005862019 -0.02408239 -0.039981738
0002e0 6a 0e c8 3d 58 6d 0d bc 82 a5 89 3d 42 d3 f4 bc
       0.09768374 -0.008632027 0.06721021 -0.029885892
0002f0 91 1f 8c 3d ad d3 4f bd c0 72 ff bc dd 41 45 bd
       0.06841958 -0.05073898 -0.031182647 -0.048158515
000300 bf 01 b3 bd d2 46 71 bd 77 02 03 3d ff 6b 92 bd
       -0.087405674 -0.05890543 0.031984773 -0.07149505
000310 85 b1 75 3d ed ed 47 3d 9d e1 50 3d 53 ee 9e 3d
       0.05998375 0.048810888 0.05099641 0.077603005
000320 a3 27 22 bc 77 fa 69 bd 2e dc 84 3d 07 ac c0 bd
       -0.009897145 -0.057123628 0.064873084 -0.094078116
000330 03 35 b8 3d ef 88 cf 3b 15 3b 0b 3d 13 1d 70 bd
       0.08994486 0.0063334624 0.033991892 -0.058621477
000340 06 13 9a 3d 85 08 90 bd 19 51 37 bd 17 b5 95 3d
       0.0752316 -0.07032875 -0.044755075 0.07309931
000350 0a 3b 98 bd e1 59 a7 3d 27 86 34 3d 1b e2 87 bd
       -0.07433136 0.0817144 0.04407325 -0.06634923
000360 31 92 5a 3d c9 dd 96 3d d9 aa 14 3d d6 27 bc bd
       0.053362075 0.07366521 0.036295746 -0.091872856
000370 d4 30 50 3d ec 46 09 bd e2 6a bd 3b 54 91 96 3d
       0.050827816 -0.033514902 0.0057805637 0.07351938
000380 40 fc ae bd 70 ec 18 bd 2f cc 26 3d b1 a5 89 bc
       -0.085442066 -0.03733486 0.04072207 -0.01680264
000390 c9 e6 a6 bd 97 ba cb 3c 2d b8 c3 bb 5e a4 cc 3d
       -0.081494875 0.024869246 -0.005972883 0.09992288
0003a0 ad 54 9b bd 29 64 1a 3d 2c 58 a1 3b 56 25 4f 3d
       -0.0758451 0.037693176 0.004923841 0.050572716
0003b0 b9 a5 84 bd ea 8b 3f 3d f4 45 8f 3d 58 17 15 bd
       -0.064769216 0.04676429 0.069957644 -0.036399215
0003c0 e6 b2 83 3d f9 7a ab 3c 7d e4 e9 3d b5 c4 bd 3b
       0.064306065 0.020932661 0.11420534 0.0057912716
0003d0 99 08 74 3d 83 69 c5 3b 29 3a d4 bd 64 9d b3 3b
       0.059578512 0.006024541 -0.10362656 0.005481409
0003e0 f2 33 89 ba 90 07 88 bc 0c da ae 3c e3 49 80 3c
       -0.0010467751 -0.016605169 0.021344207 0.015660232
0003f0 6e 64 94 bd 79 2c 64 3d 88 95 e4 bb 69 b8 fa 3c
       -0.07245718 0.055706475 -0.0069758333 0.030605512

fc2.bias f4 [84]
000000 7c b0 97 bc f6 08 a3 3d d4 19 90 3d 16 ae 26 bd
       -0.018516771 0.079606935 0.07036176 -0.040693365
000010 60 6c f6 3d 3b 4d 7e bd 7a b2 18 3e ea d0 e3 3a
       0.1203239 -0.06208537 0.14911833 0.0017380987
000020 1c ed c3 3d 81 b4 38 3b a8 01 5a bd c5 21 5a bc
       0.095667094 0.002818376 -0.053224236 -0.013313715
000030 ff 38 90 bc 98 15 1a bd 4e dc d0 3d 6e 19 3f 3d
       -0.017605303 -0.03761825 0.1019827 0.04665511
000040 6e d1 79 3e 6f 49 50 bc 0e 2f 1e bd 3d 7d d6 3d
       0.24396297 -0.01271282 -0.038619094 0.10473106
000050 fa 99 9a 3d 24 f2 9b bd cd 7d d0 3d 74 9f a6 3d
       0.075489 -0.07614544 0.101802446 0.08135882
000060 a4 15 df 3c 74 58 86 bd b6 98 c6 bd 18 44 d5 bd
       0.027231999 -0.0655984 -0.09697096 -0.104133785
000070 bb f7 af bd 86 09 a3 3c e8 7c 99 bd cd 2b 23 bd
       -0.08592173 0.019902002 -0.07494527 -0.039836694
000080 04 f4 c4 bd 2a e9 5b 3d 83 e9 5f bd 27 bd 15 3d
       -0.09616855 0.05368916 -0.054666054 0.036557343
000090 98 9e 5b 3d 25 39 ad 3d 20 cd bd 3d 9a ca ac bd
       0.053618044 0.08458165 0.0926764 -0.08437081
0000a0 cf b9 32 bd 32 44 15 3e 4f e8 3e bd be f4 c3 3d
       -0.043634232 0.14576796 -0.046608265 0.09568165
0000b0 ad cf a1 3d 29 b0 41 3d ea 68 fd bc 89 8c 85 bd
       0.07900939 0.04728714 -0.030933816 -0.065209456
0000c0 75 6a 21 3c 81 f0 d1 3d ef d3 d1 bd a8 35 1c 3e
       0.0098520415 0.102509506 -0.10245501 0.15254843
0000d0 05 40 dc 3b 48 1f 9d 3d 63 61 06 3e ae 3d 79 bc
       0.006721499 0.07671982 0.13123088 -0.0152124595
0000e0 1d 73 da bd 71 91 8b 3d 5b 04 b6 bd 05 d1 ed bc
       -0.10666487 0.0681485 -0.088875495 -0.029030332
0000f0 03 6c 9d 3d d0 51 5e 3d 5b e4 e9 3d 7c 91 09 3d
       0.07686617 0.05427724 0.114205085 0.03358601
000100 fc 5e ff bb f2 87 2f 3e 51 78 a3 bc be d8 bb bd
       -0.0077933054 0.17141703 -0.019954832 -0.091722
000110 4c ee 3c 3e 9d 21 ee 3b eb 2f 44 bc e9 dd 28 bc
       0.18450278 0.0072671906 -0.011974315 -0.010306814
000120 27 5d a9 3d 3f bf 67 bd da 76 5d 3c f1 e2 b8 bd
       0.082697205 -0.05657887 0.013517106 -0.09027661
000130 71 8b dc bd 9e e6 aa 3d 14 aa c3 bd f6 1a a2 3d
       -0.10768784 0.08344768 -0.09553924 0.07915299
000140 94 5f 05 3d 58 50 2f bc 7c 17 4f bc 64 ea 40 3d
       0.032561854 -0.010700308 -0.012639876 0.047098532

fc3.weight f4 [10, 84]
000000 29 b6 d5 bd 4c 9e 83 bd fa bb d7 3d 96 58 8a 3d
       -0.10435135 -0.06426677 0.105339006 0.06755178
000010 92 40 d8 bd e8 48 b7 3d e2 46 69 3d b8 28 2b 3e
       -0.10559191 0.08949453 0.056952365 0.16714752
000020 cf cb 90 3d 1b ab f6 3a 99 20 cf 3c b3 44 b6 bc
       0.070701234 0.0018819304 0.025284098 -0.022249555
000030 85 f7 b8 bd 74 0e 66 bd 6a 9a 86 bd 10 d0 38 3e
       -0.090315856 -0.056166127 -0.06572421 0.1804812
000040 4d e3 fd 3a d1 88 cb bd 65 76 03 3c 56 81 54 3d
       0.0019370109 -0.09938205 0.008023833 0.051881157
000050 d7 b1 89 3d 9b 6c 1c bd 79 cf 1a bb e8 8f e8 3d
       0.067233734 -0.03818951 -0.0023622198 0.11355573
000060 6c b7 6c bd 65 ea d6 3d c1 a4 82 3d c0 41 b3 bc
       -0.057792112 0.10493926 0.063790806 -0.021881938
000070 0f 0a 30 3d e7 1d dd bd ee 6c 51 bd 92 fe d3 3d
       0.042978343 -0.10796719 -0.051129274 0.1035129
000080 ad 77 a4 3d 79 56 3b be d3 8f 18 bc 65 47 ab 3d
       0.08030639 -0.18294705 -0.009311634 0.08363227
000090 53 f9 09 3d e4 13 b1 bd 24 8b c4 bc f7 e5 50 3d
       0.03368504 -0.08646372 -0.023992129 0.05100056
0000a0 24 11 fe 3c c1 50 8b bd f5 ae 03 bd 79 6a 55 3e
       0.031014033 -0.06802512 -0.032149274 0.20841397
0000b0 8d 96 11 3b e8 01 cf 3d 38 d7 c8 bd 1b fd 5b 3d
       0.002221498 0.101077855 -0.09806675 0.053708177
0000c0 3e 2c 3d 3e f8 5d 1f 3e 6f 0e 4e be bb 75 94 bd
       0.18473908 0.1556319 -0.20122693 -0.07249018
0000d0 81 98 98 bc bf 32 ba 3d 03 6f 48 bc 5a 2f 6e bd
       -0.018627407 0.0909171 -0.0122334985 -0.058150627
0000e0 23 95 bc bd b1 ff cf 3d 13 f7 97 bd 76 04 8c bd
       -0.09208133 0.10156191 -0.074201725 -0.06836788
0000f0 70 43 31 bd 3b 65 df 3d fd 83 69 bd 53 11 aa bc
       -0.043277204 0.1090798 -0.05701064 -0.020760214
000100 a5 06 6e bd 73 dc ce 3c 1e fd 67 bb 05 fc fa bc
       -0.058111805 0.025251603 -0.0035398672 -0.03063775
000110 6a 2a e4 bd 99 5f 13 bd ad 13 b9 bc 7d 61 4a 3d
       -0.11140902 -0.03597984 -0.02259239 0.04940938
000120 ed fb b7 3d c5 4e ab bd 1c f7 21 be d3 b1 b4 bd
       0.08983598 -0.083646335 -0.15816921 -0.0882298
000130 8b a3 62 3d 1e 5a 40 3c bd 53 a0 bd 38 09 ab bd
       0.055331748 0.011740236 -0.07828472 -0.08351368
000140 ba a5 02 3e d3 18 2e 3e 74 9c b3 3d 2c bb ce 3d
       0.12758532 0.17001657 0.087700754 0.10094294
000150 19 8b d0 3c 77 1e 51 bd 7c aa ed 3d e0 bd fc bc
       0.025456952 -0.051054444 0.11604783 -0.030852258
000160 a6 04 6b bd ba 91 d9 bb 00 b1 2c be 42 60 9a bd
       -0.05737748 -0.0066396864 -0.16864395 -0.07537891
000170 f6 60 89 be b0 cc c3 bd 4e 22 74 3d 39 64 37 bd
       -0.26831788 -0.095605254 0.059603028 -0.044773314
000180 9c 47 fb bd d2 d8 c2 bd 14 be da bd 6d 9b c8 bc
       -0.12269518 -0.095140114 -0.10680786 -0.024488175
000190 4f ca 81 be 37 0e 06 3e 0e 45 30 3d b2 ff ba 3d
       -0.25349662 0.1309136 0.043034606 0.09130801
0001a0 48 03 2c be 8b d3 21 bd 15 91 b5 bd d3 69 be 3d
       -0.16798127 -0.039508384 -0.08865563 0.09297528
0001b0 60 d3 05 3e 00 b2 e0 39 fe c9 2b bd d5 17 e4 3c
       0.13068914 0.0004285723 -0.04194068 0.027843395
0001c0 16 c9 ec ba 36 3a d5 3d 0b 37 cd 3d a9 61 8d 3d
       -0.0018065299 0.104114935 0.10020264 0.06903393
0001d0 9a 36 24 3e dd 5f 3f be ee b9 7b bc fa 72 79 3e
       0.16036454 -0.18688913 -0.015364153 0.24360266
0001e0 fa 77 ac 3d cc b4 31 be c2 8b ad bd 0e 16 e5 3d
       0.08421321 -0.17354125 -0.08473922 0.11185847
0001f0 68 58 95 bc 55 04 e0 3c d3 e3 50 3e 19 e3 42 be
       -0.018230632 0.027345816 0.20399408 -0.19031943
000200 e8 59 37 bd 13 c8 a0 3d ce 1c ef 3d 3d 30 8a 3d
       -0.044763476 0.07850661 0.11675416 0.06747482
000210 21 fe d8 bc 03 55 22 be d0 16 04 bd 98 7d 88 bd
       -0.026488366 -0.15852742 -0.03224832 -0.0666458
000220 85 1a ed 3c 10 1a f7 bd 60 ab d6 3d bf bf ad 3d
       0.02894331 -0.12065518 0.10481906 0.08483838
000230 f0 45 7f 3d 16 c2 c6 3d 28 77 63 bd e6 cf a0 3d
       0.062322557 0.09704988 -0.055533558 0.078521535
000240 df a4 ef 3c 5b 90 67 3d 7a dd 4f bc d9 c9 1e ba
       0.029253421 0.056534152 -0.0126870815 -0.00060572993
000250 0f 27 30 3d 33 41 0b be f4 cf 4d bd 28 cc 21 3e
       0.043006 -0.1359909 -0.050247148 0.15800536
000260 ff 44 18 be e5 49 85 bd c0 f4 a9 bd f8 cb 8f 3d
       -0.1487007 -0.06508235 -0.082986355 0.07021326
000270 00 3c cc bd 43 d8 fd 3c 11 90 3f be b3 4b 88 bc
       -0.099723816 0.03098691 -0.187073 -0.016637659
000280 13 37 4a be 9b 68 f4 bc b0 cb 0d 3e 5d ba e7 bc
       -0.19747572 -0.029835036 0.13847232 -0.028287107
000290 dc ca 43 3e 3d b4 86 bc 15 c4 a6 3d 4d da df bd
       0.19120353 -0.016443366 0.081428684 -0.109303094
0002a0 70 96 a3 3c cf d9 35 3e d4 76 af 3d 39 bb b7 bd
       0.019969195 0.17758869 0.085675865 -0.08971257
0002b0 00 b8 8e 3d 0e 0b cd bd 57 28 2f 3d c6 b4 0a bc
       0.06968689 -0.10011874 0.04276308 -0.008465951
0002c0 fb 79 01 3c 3a 24 a8 bd 7b f5 c3 3d 1c 5c d5 bc
       0.007902618 -0.08210035 0.09568306 -0.026044898
0002d0 43 a3 14 bc 99 22 00 3c cb 9d 1c 3e c4 31 49 3e
       -0.009072128 0.007820749 0.15294568 0.1964789
0002e0 32 d3 2c 3e 39 f8 9a 3d be 3f b6 bb e5 ce ce 3d
       0.1687744 0.07566876 -0.005561798 0.10098056
0002f0 bf 55 7a bd d5 2a fd bd fa e5 c9 3b 9e 34 10 3e
       -0.06111693 -0.12361685 0.0061614485 0.14082572
000300 bd f4 29 be ab 8d c7 3d b1 25 de bd 7e 0b 19 3d
       -0.16597266 0.09743818 -0.10847033 0.037364475
000310 f5 35 b8 bd d0 93 46 3d 15 a0 04 3d 5c da e5 bc
       -0.089946665 0.04848081 0.03237923 -0.028058223
000320 b9 21 df bd f1 ac 17 bd 91 c8 b6 3d 76 08 b1 bd
       -0.10895104 -0.037030164 0.08924974 -0.08644192
000330 4a e4 c1 bd 0b bf 8f 3d bc a9 a5 3d 8c f0 d2 bc
       -0.09467371 0.070188604 0.08089015 -0.025749467
000340 be 53 66 3d f3 a0 71 3d 78 e6 54 be a1 fe 48 3e
       0.056232207 0.058991384 -0.20791042 0.19628383
000350 97 12 30 3d 94 00 e5 bd d1 f2 ed 3c 5a 8c 98 bd
       0.04298648 -0.11181751 0.029046448 -0.07448645
000360 ec 26 15 3e d1 5f 6d bb d5 c5 8a 3d 05 2f 5e 3e
       0.14565629 -0.003622044 0.06776015 0.21697624
000370 05 bd 24 3b 2f fc 3a 3e e4 ff 01 3e aa a9 a1 3d
       0.0025137078 0.18260263 0.12695271 0.07893689
000380 2b f5 1b 3d 67 ec ac bd 54 5e a2 3d 8b 40 44 be
       0.038075607 -0.08443528 0.07928148 -0.19165246
000390 06 b2 f6 3d c7 f4 1e 3c ca 8e bd bc e5 9f b6 3d
       0.12045674 0.009701914 -0.023139376 0.08917216
0003a0 4b db 71 bd 82 8d 62 3e 01 ed 0a 3e 7f 88 7a bc
       -0.059047025 0.22124293 0.13566972 -0.015291332
0003b0 ba b2 10 3d 45 69 86 3c 32 e5 ad 3d 81 e0 e1 3d
       0.035326697 0.016407618 0.08490981 0.11029149
0003c0 38 03 af 3a 54 63 ce bd 48 94 4b bd 16 a0 80 bd
       0.00133524 -0.10077539 -0.04970196 -0.06280534
0003d0 4f 63 c6 3d 83 55 48 bd 5a 5a 20 be bd f3 33 bc
       0.0968691 -0.048909675 -0.15659466 -0.010983405
0003e0 75 32 8d bb 21 3b 9e bd 41 6b d5 bd 6c 78 a4 bb
       -0.0043089935 -0.07726122 -0.10420848 -0.005019238
0003f0 39 41 b8 bd 35 cb 3e 3b b2 cc 77 bb 42 30 9c bd
       -0.08996815 0.002911282 -0.0037811217 -0.07626392

fc3.bias f4 [10]
000000 1f 49 cd bd 64 39 1f be 22 28 17 3e 14 24 e9 bd
       -0.10023712 -0.15549237 0.14761403 -0.113838345
000010 03 27 b6 3e fd 3c cf bd d8 9c 51 3e c8 a0 df bd
       0.3557664 -0.101190545 0.20469987 -0.109193385
000020 84 7c 49 3d 47 60 ef bd
       0.049191013 -0.11688285
